…
        "opt": "Namespace(size=128, stage=9, seed=42, reuse=[1, 1, 0, 0, 0, 0, 0, 0, 1], bands=8, dim=16, is_train=True, config='configs/DPU/DPU_base.py', work_dir=None, device='1', distributed=False, resume=None, local_rank=0, body_share_params=False)"
    },
    "eval": {
        "flag": true,
        "interval": 1
    }
}
--------------------------------------------------------------------------------

2025-03-09 19:05:09,869 - Train_video.py [line: 173] - Model info:
--------------------------------------------------------------------------------
NetVideo_base_noStageInteraction_normalunfolding_1(
  (conv3d): Conv3d(32, 16, kernel_size=(1, 1, 1), stride=(1, 1, 1))
  (mu): ModuleList(
    (0-8): 9 x Mu_Estimator(
      (conv): Sequential(
        (0): Conv3d(16, 8, kernel_size=(1, 1, 1), stride=(1, 1, 1))
        (1): ReLU(inplace=True)
      )
      (avpool): AdaptiveAvgPool3d(output_size=1)
      (mlp): Sequential(
        (0): Conv3d(8, 8, kernel_size=(1, 1, 1), stride=(1, 1, 1))
        (1): ReLU(inplace=True)
        (2): Conv3d(8, 8, kernel_size=(1, 1, 1), stride=(1, 1, 1))
        (3): ReLU(inplace=True)
        (4): Conv3d(8, 1, kernel_size=(1, 1, 1), stride=(1, 1, 1))
        (5): Softplus(beta=1, threshold=20)
      )
    )
  )
  (net_stage_head): ModuleList(
    (0): STT(
      (conv_in): Conv3d(16, 16, kernel_size=(3, 3, 3), stride=(1, 1, 1), padding=(1, 1, 1), bias=False)
      (down1): STSAB(
        (FAB): FAB(
          (pos_emb): Conv3d(16, 16, kernel_size=(5, 5, 5), stride=(1, 1, 1), padding=(2, 2, 2), groups=16, bias=False)
          (fa): PreNorm(
            (fn): FA(
              (cal_atten): Attention(
                (pc_proj_q): Linear(in_features=16, out_features=1, bias=False)
                (pc_proj_k): Linear(in_features=16, out_features=1, bias=False)
                (mlp1): Sequential(
                  (0): Linear(in_features=64, out_features=1, bias=False)
                )
                (mlp2): Sequential(
                  (0): Linear(in_features=64, out_features=64, bias=False)
                  (1): LeakyReLU(negative_slope=0.1, inplace=True)
                  (2): Linear(in_features=64, out_features=1, bias=False)
                )
              )
              (to_v): Linear(in_features=16, out_features=16, bias=False)
              (to_qk): Linear(in_features=16, out_features=32, bias=False)
              (to_out): Linear(in_features=16, out_features=16, bias=True)
            )
            (norm): LayerNorm((16,), eps=1e-05, elementwise_affine=True)
          )
          (ffn): PreNorm(
            (fn): FeedForward(
              (net): Sequential(
                (0): Conv3d(16, 64, kernel_size=(1, 1, 1), stride=(1, 1, 1), bias=False)
                (1): GELU()
                (2): Conv3d(64, 64, kernel_size=(3, 3, 3), stride=(1, 1, 1), padding=(1, 1, 1), groups=64, bias=False)
                (3): GELU()
                (4): Conv3d(64, 16, kernel_size=(1, 1, 1), stride=(1, 1, 1), bias=False)
              )
            )
            (norm): LayerNorm((16,), eps=1e-05, elementwise_affine=True)
          )
        )
        (TSAB): TSAB(
          (tsab): PreNorm(
            (fn): TimesAttention3D(
              (qkv): Linear(in_features=16, out_features=48, bias=False)
              (proj): Linear(in_features=16, out_features=16, bias=True)
              (softmax): Softmax(dim=-1)
            )
            (norm): LayerNorm((16,), eps=1e-05, elementwise_affine=True)
          )
          (ffn): PreNorm(
            (fn): FeedForward(
              (net): Sequential(
                (0): Conv3d(16, 64, kernel_size=(1, 1, 1), stride=(1, 1, 1), bias=False)
                (1): GELU()
                (2): Conv3d(64, 64, kernel_size=(3, 3, 3), stride=(1, 1, 1), padding=(1, 1, 1), groups=64, bias=False)
                (3): GELU()
                (4): Conv3d(64, 16, kernel_size=(1, 1, 1), stride=(1, 1, 1), bias=False)
              )
            )
            (norm): LayerNorm((16,), eps=1e-05, elementwise_affine=True)
          )
        )
      )
      (downsample1): Conv3d(16, 32, kernel_size=(3, 4, 4), stride=(1, 2, 2), padding=(1, 1, 1), bias=False)
      (down2): STSAB(
        (FAB): FAB(
          (pos_emb): Conv3d(32, 32, kernel_size=(5, 5, 5), stride=(1, 1, 1), padding=(2, 2, 2), groups=32, bias=False)
          (fa): PreNorm(
            (fn): FA(
              (cal_atten): Attention(
                (pc_proj_q): Linear(in_features=16, out_features=1, bias=False)
                (pc_proj_k): Linear(in_features=16, out_features=1, bias=False)
                (mlp1): Sequential(
                  (0): Linear(in_features=64, out_features=1, bias=False)
                )
                (mlp2): Sequential(
                  (0): Linear(in_features=64, out_features=64, bias=False)
                  (1): LeakyReLU(negative_slope=0.1, inplace=True)
                  (2): Linear(in_features=64, out_features=1, bias=False)
                )
              )
              (to_v): Linear(in_features=32, out_features=32, bias=False)
              (to_qk): Linear(in_features=32, out_features=32, bias=False)
              (to_out): Linear(in_features=32, out_features=32, bias=True)
            )
            (norm): LayerNorm((32,), eps=1e-05, elementwise_affine=True)
          )
          (ffn): PreNorm(
            (fn): FeedForward(
              (net): Sequential(
                (0): Conv3d(32, 128, kernel_size=(1, 1, 1), stride=(1, 1, 1), bias=False)
                (1): GELU()
                (2): Conv3d(128, 128, kernel_size=(3, 3, 3), stride=(1, 1, 1), padding=(1, 1, 1), groups=128, bias=False)
                (3): GELU()
                (4): Conv3d(128, 32, kernel_size=(1, 1, 1), stride=(1, 1, 1), bias=False)
              )
            )
            (norm): LayerNorm((32,), eps=1e-05, elementwise_affine=True)
          )
        )
        (TSAB): TSAB(
          (tsab): PreNorm(
            (fn): TimesAttention3D(
              (qkv): Linear(in_features=32, out_features=96, bias=False)
              (proj): Linear(in_features=32, out_features=32, bias=True)
              (softmax): Softmax(dim=-1)
            )
            (norm): LayerNorm((32,), eps=1e-05, elementwise_affine=True)
          )
          (ffn): PreNorm(
            (fn): FeedForward(
              (net): Sequential(
                (0): Conv3d(32, 128, kernel_size=(1, 1, 1), stride=(1, 1, 1), bias=False)
                (1): GELU()
                (2): Conv3d(128, 128, kernel_size=(3, 3, 3), stride=(1, 1, 1), padding=(1, 1, 1), groups=128, bias=False)
                (3): GELU()
                (4): Conv3d(128, 32, kernel_size=(1, 1, 1), stride=(1, 1, 1), bias=False)
              )
            )
            (norm): LayerNorm((32,), eps=1e-05, elementwise_affine=True)
          )
        )
      )
      (downsample2): Conv3d(32, 64, kernel_size=(3, 4, 4), stride=(1, 2, 2), padding=(1, 1, 1), bias=False)
      (bottleneck_local): STSAB(
        (FAB): FAB(
          (pos_emb): Conv3d(32, 32, kernel_size=(5, 5, 5), stride=(1, 1, 1), padding=(2, 2, 2), groups=32, bias=False)
          (fa): PreNorm(
            (fn): FA(
              (cal_atten): Attention(
                (pc_proj_q): Linear(in_features=16, out_features=1, bias=False)
                (pc_proj_k): Linear(in_features=16, out_features=1, bias=False)
                (mlp1): Sequential(
                  (0): Linear(in_features=64, out_features=1, bias=False)
                )
                (mlp2): Sequential(
                  (0): Linear(in_features=64, out_features=64, bias=False)
                  (1): LeakyReLU(negative_slope=0.1, inplace=True)
                  (2): Linear(in_features=64, out_features=1, bias=False)
                )
              )
              (to_v): Linear(in_features=32, out_features=32, bias=False)
              (to_qk): Linear(in_features=32, out_features=32, bias=False)
              (to_out): Linear(in_features=32, out_features=32, bias=True)
            )
            (norm): LayerNorm((32,), eps=1e-05, elementwise_affine=True)
          )
          (ffn): PreNorm(
            (fn): FeedForward(
              (net): Sequential(
                (0): Conv3d(32, 128, kernel_size=(1, 1, 1), stride=(1, 1, 1), bias=False)
                (1): GELU()
                (2): Conv3d(128, 128, kernel_size=(3, 3, 3), stride=(1, 1, 1), padding=(1, 1, 1), groups=128, bias=False)
                (3): GELU()
                (4): Conv3d(128, 32, kernel_size=(1, 1, 1), stride=(1, 1, 1), bias=False)
              )
            )
            (norm): LayerNorm((32,), eps=1e-05, elementwise_affine=True)
          )
        )
        (TSAB): TSAB(
          (tsab): PreNorm(
            (fn): TimesAttention3D(
              (qkv): Linear(in_features=32, out_features=96, bias=False)
              (proj): Linear(in_features=32, out_features=32, bias=True)
              (softmax): Softmax(dim=-1)
            )
            (norm): LayerNorm((32,), eps=1e-05, elementwise_affine=True)
          )
          (ffn): PreNorm(
            (fn): FeedForward(
              (net): Sequential(
                (0): Conv3d(32, 128, kernel_size=(1, 1, 1), stride=(1, 1, 1), bias=False)
                (1): GELU()
                (2): Conv3d(128, 128, kernel_size=(3, 3, 3), stride=(1, 1, 1), padding=(1, 1, 1), groups=128, bias=False)
                (3): GELU()
                (4): Conv3d(128, 32, kernel_size=(1, 1, 1), stride=(1, 1, 1), bias=False)
              )
            )
            (norm): LayerNorm((32,), eps=1e-05, elementwise_affine=True)
          )
        )
      )
      (bottleneck_swin): STSAB(
        (FAB): FAB(
          (pos_emb): Conv3d(32, 32, kernel_size=(5, 5, 5), stride=(1, 1, 1), padding=(2, 2, 2), groups=32, bias=False)
          (fa): PreNorm(
            (fn): FA(
              (cal_atten): Attention(
                (pc_proj_q): Linear(in_features=16, out_features=1, bias=False)
                (pc_proj_k): Linear(in_features=16, out_features=1, bias=False)
                (mlp1): Sequential(
                  (0): Linear(in_features=64, out_features=1, bias=False)
                )
                (mlp2): Sequential(
                  (0): Linear(in_features=64, out_features=64, bias=False)
                  (1): LeakyReLU(negative_slope=0.1, inplace=True)
                  (2): Linear(in_features=64, out_features=1, bias=False)
                )
              )
              (to_v): Linear(in_features=32, out_features=32, bias=False)
              (to_qk): Linear(in_features=32, out_features=32, bias=False)
              (to_out): Linear(in_features=32, out_features=32, bias=True)
            )
            (norm): LayerNorm((32,), eps=1e-05, elementwise_affine=True)
          )
          (ffn): PreNorm(
            (fn): FeedForward(
              (net): Sequential(
                (0): Conv3d(32, 128, kernel_size=(1, 1, 1), stride=(1, 1, 1), bias=False)
                (1): GELU()
                (2): Conv3d(128, 128, kernel_size=(3, 3, 3), stride=(1, 1, 1), padding=(1, 1, 1), groups=128, bias=False)
                (3): GELU()
                (4): Conv3d(128, 32, kernel_size=(1, 1, 1), stride=(1, 1, 1), bias=False)
              )
            )
            (norm): LayerNorm((32,), eps=1e-05, elementwise_affine=True)
          )
        )
        (TSAB): TSAB(
          (tsab): PreNorm(
            (fn): TimesAttention3D(
              (qkv): Linear(in_features=32, out_features=96, bias=False)
              (proj): Linear(in_features=32, out_features=32, bias=True)
              (softmax): Softmax(dim=-1)
            )
            (norm): LayerNorm((32,), eps=1e-05, elementwise_affine=True)
          )
          (ffn): PreNorm(
            (fn): FeedForward(
              (net): Sequential(
                (0): Conv3d(32, 128, kernel_size=(1, 1, 1), stride=(1, 1, 1), bias=False)
                (1): GELU()
                (2): Conv3d(128, 128, kernel_size=(3, 3, 3), stride=(1, 1, 1), padding=(1, 1, 1), groups=128, bias=False)
                (3): GELU()
                (4): Conv3d(128, 32, kernel_size=(1, 1, 1), stride=(1, 1, 1), bias=False)
              )
            )
            (norm): LayerNorm((32,), eps=1e-05, elementwise_affine=True)
          )
        )
      )
      (upsample2): ConvTranspose3d(64, 32, kernel_size=(1, 2, 2), stride=(1, 2, 2))
      (fusion2): Conv3d(64, 32, kernel_size=(1, 1, 1), stride=(1, 1, 1), bias=False)
      (up2): STSAB(
        (FAB): FAB(
          (pos_emb): Conv3d(32, 32, kernel_size=(5, 5, 5), stride=(1, 1, 1), padding=(2, 2, 2), groups=32, bias=False)
          (fa): PreNorm(
            (fn): FA(
              (cal_atten): Attention(
                (pc_proj_q): Linear(in_features=16, out_features=1, bias=False)
                (pc_proj_k): Linear(in_features=16, out_features=1, bias=False)
                (mlp1): Sequential(
                  (0): Linear(in_features=64, out_features=1, bias=False)
                )
                (mlp2): Sequential(
                  (0): Linear(in_features=64, out_features=64, bias=False)
                  (1): LeakyReLU(negative_slope=0.1, inplace=True)
                  (2): Linear(in_features=64, out_features=1, bias=False)
                )
              )
              (to_v): Linear(in_features=32, out_features=32, bias=False)
              (to_qk): Linear(in_features=32, out_features=32, bias=False)
              (to_out): Linear(in_features=32, out_features=32, bias=True)
            )
            (norm): LayerNorm((32,), eps=1e-05, elementwise_affine=True)
          )
          (ffn): PreNorm(
            (fn): FeedForward(
              (net): Sequential(
                (0): Conv3d(32, 128, kernel_size=(1, 1, 1), stride=(1, 1, 1), bias=False)
                (1): GELU()
                (2): Conv3d(128, 128, kernel_size=(3, 3, 3), stride=(1, 1, 1), padding=(1, 1, 1), groups=128, bias=False)
                (3): GELU()
                (4): Conv3d(128, 32, kernel_size=(1, 1, 1), stride=(1, 1, 1), bias=False)
              )
            )
            (norm): LayerNorm((32,), eps=1e-05, elementwise_affine=True)
          )
        )
        (TSAB): TSAB(
          (tsab): PreNorm(
            (fn): TimesAttention3D(
              (qkv): Linear(in_features=32, out_features=96, bias=False)
              (proj): Linear(in_features=32, out_features=32, bias=True)
              (softmax): Softmax(dim=-1)
            )
            (norm): LayerNorm((32,), eps=1e-05, elementwise_affine=True)
          )
          (ffn): PreNorm(
            (fn): FeedForward(
              (net): Sequential(
                (0): Conv3d(32, 128, kernel_size=(1, 1, 1), stride=(1, 1, 1), bias=False)
                (1): GELU()
                (2): Conv3d(128, 128, kernel_size=(3, 3, 3), stride=(1, 1, 1), padding=(1, 1, 1), groups=128, bias=False)
                (3): GELU()
                (4): Conv3d(128, 32, kernel_size=(1, 1, 1), stride=(1, 1, 1), bias=False)
              )
            )
            (norm): LayerNorm((32,), eps=1e-05, elementwise_affine=True)
          )
        )
      )
      (upsample1): ConvTranspose3d(32, 16, kernel_size=(1, 2, 2), stride=(1, 2, 2))
      (fusion1): Conv3d(32, 16, kernel_size=(1, 1, 1), stride=(1, 1, 1), bias=False)
      (up1): STSAB(
        (FAB): FAB(
          (pos_emb): Conv3d(16, 16, kernel_size=(5, 5, 5), stride=(1, 1, 1), padding=(2, 2, 2), groups=16, bias=False)
          (fa): PreNorm(
            (fn): FA(
              (cal_atten): Attention(
                (pc_proj_q): Linear(in_features=16, out_features=1, bias=False)
                (pc_proj_k): Linear(in_features=16, out_features=1, bias=False)
                (mlp1): Sequential(
                  (0): Linear(in_features=64, out_features=1, bias=False)
                )
                (mlp2): Sequential(
                  (0): Linear(in_features=64, out_features=64, bias=False)
                  (1): LeakyReLU(negative_slope=0.1, inplace=True)
                  (2): Linear(in_features=64, out_features=1, bias=False)
                )
              )
              (to_v): Linear(in_features=16, out_features=16, bias=False)
              (to_qk): Linear(in_features=16, out_features=32, bias=False)
              (to_out): Linear(in_features=16, out_features=16, bias=True)
            )
            (norm): LayerNorm((16,), eps=1e-05, elementwise_affine=True)
          )
          (ffn): PreNorm(
            (fn): FeedForward(
              (net): Sequential(
                (0): Conv3d(16, 64, kernel_size=(1, 1, 1), stride=(1, 1, 1), bias=False)
                (1): GELU()
                (2): Conv3d(64, 64, kernel_size=(3, 3, 3), stride=(1, 1, 1), padding=(1, 1, 1), groups=64, bias=False)
                (3): GELU()
                (4): Conv3d(64, 16, kernel_size=(1, 1, 1), stride=(1, 1, 1), bias=False)
              )
            )
            (norm): LayerNorm((16,), eps=1e-05, elementwise_affine=True)
          )
        )
        (TSAB): TSAB(
          (tsab): PreNorm(
            (fn): TimesAttention3D(
              (qkv): Linear(in_features=16, out_features=48, bias=False)
              (proj): Linear(in_features=16, out_features=16, bias=True)
              (softmax): Softmax(dim=-1)
            )
            (norm): LayerNorm((16,), eps=1e-05, elementwise_affine=True)
          )
          (ffn): PreNorm(
            (fn): FeedForward(
              (net): Sequential(
                (0): Conv3d(16, 64, kernel_size=(1, 1, 1), stride=(1, 1, 1), bias=False)
                (1): GELU()
                (2): Conv3d(64, 64, kernel_size=(3, 3, 3), stride=(1, 1, 1), padding=(1, 1, 1), groups=64, bias=False)
                (3): GELU()
                (4): Conv3d(64, 16, kernel_size=(1, 1, 1), stride=(1, 1, 1), bias=False)
              )
            )
            (norm): LayerNorm((16,), eps=1e-05, elementwise_affine=True)
          )
        )
      )
      (conv_out): Conv3d(16, 16, kernel_size=(3, 3, 3), stride=(1, 1, 1), padding=(1, 1, 1), bias=False)
    )
  )
  (net_stage_body): ModuleList(
    (0-6): 7 x ModuleList(
      (0): STT(
        (conv_in): Conv3d(16, 16, kernel_size=(3, 3, 3), stride=(1, 1, 1), padding=(1, 1, 1), bias=False)
        (down1): STSAB(
          (FAB): FAB(
            (pos_emb): Conv3d(16, 16, kernel_size=(5, 5, 5), stride=(1, 1, 1), padding=(2, 2, 2), groups=16, bias=False)
            (fa): PreNorm(
              (fn): FA(
                (cal_atten): Attention(
                  (pc_proj_q): Linear(in_features=16, out_features=1, bias=False)
                  (pc_proj_k): Linear(in_features=16, out_features=1, bias=False)
                  (mlp1): Sequential(
                    (0): Linear(in_features=64, out_features=1, bias=False)
                  )
                  (mlp2): Sequential(
                    (0): Linear(in_features=64, out_features=64, bias=False)
                    (1): LeakyReLU(negative_slope=0.1, inplace=True)
                    (2): Linear(in_features=64, out_features=1, bias=False)
                  )
                )
                (to_v): Linear(in_features=16, out_features=16, bias=False)
                (to_qk): Linear(in_features=16, out_features=32, bias=False)
                (to_out): Linear(in_features=16, out_features=16, bias=True)
              )
              (norm): LayerNorm((16,), eps=1e-05, elementwise_affine=True)
            )
            (ffn): PreNorm(
              (fn): FeedForward(
                (net): Sequential(
                  (0): Conv3d(16, 64, kernel_size=(1, 1, 1), stride=(1, 1, 1), bias=False)
                  (1): GELU()
                  (2): Conv3d(64, 64, kernel_size=(3, 3, 3), stride=(1, 1, 1), padding=(1, 1, 1), groups=64, bias=False)
                  (3): GELU()
                  (4): Conv3d(64, 16, kernel_size=(1, 1, 1), stride=(1, 1, 1), bias=False)
                )
              )
              (norm): LayerNorm((16,), eps=1e-05, elementwise_affine=True)
            )
          )
          (TSAB): TSAB(
            (tsab): PreNorm(
              (fn): TimesAttention3D(
                (qkv): Linear(in_features=16, out_features=48, bias=False)
                (proj): Linear(in_features=16, out_features=16, bias=True)
                (softmax): Softmax(dim=-1)
              )
              (norm): LayerNorm((16,), eps=1e-05, elementwise_affine=True)
            )
            (ffn): PreNorm(
              (fn): FeedForward(
                (net): Sequential(
                  (0): Conv3d(16, 64, kernel_size=(1, 1, 1), stride=(1, 1, 1), bias=False)
                  (1): GELU()
                  (2): Conv3d(64, 64, kernel_size=(3, 3, 3), stride=(1, 1, 1), padding=(1, 1, 1), groups=64, bias=False)
                  (3): GELU()
                  (4): Conv3d(64, 16, kernel_size=(1, 1, 1), stride=(1, 1, 1), bias=False)
                )
              )
              (norm): LayerNorm((16,), eps=1e-05, elementwise_affine=True)
            )
          )
        )
        (downsample1): Conv3d(16, 32, kernel_size=(3, 4, 4), stride=(1, 2, 2), padding=(1, 1, 1), bias=False)
        (down2): STSAB(
          (FAB): FAB(
            (pos_emb): Conv3d(32, 32, kernel_size=(5, 5, 5), stride=(1, 1, 1), padding=(2, 2, 2), groups=32, bias=False)
            (fa): PreNorm(
              (fn): FA(
                (cal_atten): Attention(
                  (pc_proj_q): Linear(in_features=16, out_features=1, bias=False)
                  (pc_proj_k): Linear(in_features=16, out_features=1, bias=False)
                  (mlp1): Sequential(
                    (0): Linear(in_features=64, out_features=1, bias=False)
                  )
                  (mlp2): Sequential(
                    (0): Linear(in_features=64, out_features=64, bias=False)
                    (1): LeakyReLU(negative_slope=0.1, inplace=True)
                    (2): Linear(in_features=64, out_features=1, bias=False)
                  )
                )
                (to_v): Linear(in_features=32, out_features=32, bias=False)
                (to_qk): Linear(in_features=32, out_features=32, bias=False)
                (to_out): Linear(in_features=32, out_features=32, bias=True)
              )
              (norm): LayerNorm((32,), eps=1e-05, elementwise_affine=True)
            )
            (ffn): PreNorm(
              (fn): FeedForward(
                (net): Sequential(
                  (0): Conv3d(32, 128, kernel_size=(1, 1, 1), stride=(1, 1, 1), bias=False)
                  (1): GELU()
                  (2): Conv3d(128, 128, kernel_size=(3, 3, 3), stride=(1, 1, 1), padding=(1, 1, 1), groups=128, bias=False)
                  (3): GELU()
                  (4): Conv3d(128, 32, kernel_size=(1, 1, 1), stride=(1, 1, 1), bias=False)
                )
              )
              (norm): LayerNorm((32,), eps=1e-05, elementwise_affine=True)
            )
          )
          (TSAB): TSAB(
            (tsab): PreNorm(
              (fn): TimesAttention3D(
                (qkv): Linear(in_features=32, out_features=96, bias=False)
                (proj): Linear(in_features=32, out_features=32, bias=True)
                (softmax): Softmax(dim=-1)
              )
              (norm): LayerNorm((32,), eps=1e-05, elementwise_affine=True)
            )
            (ffn): PreNorm(
              (fn): FeedForward(
                (net): Sequential(
                  (0): Conv3d(32, 128, kernel_size=(1, 1, 1), stride=(1, 1, 1), bias=False)
                  (1): GELU()
                  (2): Conv3d(128, 128, kernel_size=(3, 3, 3), stride=(1, 1, 1), padding=(1, 1, 1), groups=128, bias=False)
                  (3): GELU()
                  (4): Conv3d(128, 32, kernel_size=(1, 1, 1), stride=(1, 1, 1), bias=False)
                )
              )
              (norm): LayerNorm((32,), eps=1e-05, elementwise_affine=True)
            )
          )
        )
        (downsample2): Conv3d(32, 64, kernel_size=(3, 4, 4), stride=(1, 2, 2), padding=(1, 1, 1), bias=False)
        (bottleneck_local): STSAB(
          (FAB): FAB(
            (pos_emb): Conv3d(32, 32, kernel_size=(5, 5, 5), stride=(1, 1, 1), padding=(2, 2, 2), groups=32, bias=False)
            (fa): PreNorm(
              (fn): FA(
                (cal_atten): Attention(
                  (pc_proj_q): Linear(in_features=16, out_features=1, bias=False)
                  (pc_proj_k): Linear(in_features=16, out_features=1, bias=False)
                  (mlp1): Sequential(
                    (0): Linear(in_features=64, out_features=1, bias=False)
                  )
                  (mlp2): Sequential(
                    (0): Linear(in_features=64, out_features=64, bias=False)
                    (1): LeakyReLU(negative_slope=0.1, inplace=True)
                    (2): Linear(in_features=64, out_features=1, bias=False)
                  )
                )
                (to_v): Linear(in_features=32, out_features=32, bias=False)
                (to_qk): Linear(in_features=32, out_features=32, bias=False)
                (to_out): Linear(in_features=32, out_features=32, bias=True)
              )
              (norm): LayerNorm((32,), eps=1e-05, elementwise_affine=True)
            )
            (ffn): PreNorm(
              (fn): FeedForward(
                (net): Sequential(
                  (0): Conv3d(32, 128, kernel_size=(1, 1, 1), stride=(1, 1, 1), bias=False)
                  (1): GELU()
                  (2): Conv3d(128, 128, kernel_size=(3, 3, 3), stride=(1, 1, 1), padding=(1, 1, 1), groups=128, bias=False)
                  (3): GELU()
                  (4): Conv3d(128, 32, kernel_size=(1, 1, 1), stride=(1, 1, 1), bias=False)
                )
              )
              (norm): LayerNorm((32,), eps=1e-05, elementwise_affine=True)
            )
          )
          (TSAB): TSAB(
            (tsab): PreNorm(
              (fn): TimesAttention3D(
                (qkv): Linear(in_features=32, out_features=96, bias=False)
                (proj): Linear(in_features=32, out_features=32, bias=True)
                (softmax): Softmax(dim=-1)
              )
              (norm): LayerNorm((32,), eps=1e-05, elementwise_affine=True)
            )
            (ffn): PreNorm(
              (fn): FeedForward(
                (net): Sequential(
                  (0): Conv3d(32, 128, kernel_size=(1, 1, 1), stride=(1, 1, 1), bias=False)
                  (1): GELU()
                  (2): Conv3d(128, 128, kernel_size=(3, 3, 3), stride=(1, 1, 1), padding=(1, 1, 1), groups=128, bias=False)
                  (3): GELU()
                  (4): Conv3d(128, 32, kernel_size=(1, 1, 1), stride=(1, 1, 1), bias=False)
                )
              )
              (norm): LayerNorm((32,), eps=1e-05, elementwise_affine=True)
            )
          )
        )
        (bottleneck_swin): STSAB(
          (FAB): FAB(
            (pos_emb): Conv3d(32, 32, kernel_size=(5, 5, 5), stride=(1, 1, 1), padding=(2, 2, 2), groups=32, bias=False)
            (fa): PreNorm(
              (fn): FA(
                (cal_atten): Attention(
                  (pc_proj_q): Linear(in_features=16, out_features=1, bias=False)
                  (pc_proj_k): Linear(in_features=16, out_features=1, bias=False)
                  (mlp1): Sequential(
                    (0): Linear(in_features=64, out_features=1, bias=False)
                  )
                  (mlp2): Sequential(
                    (0): Linear(in_features=64, out_features=64, bias=False)
                    (1): LeakyReLU(negative_slope=0.1, inplace=True)
                    (2): Linear(in_features=64, out_features=1, bias=False)
                  )
                )
                (to_v): Linear(in_features=32, out_features=32, bias=False)
                (to_qk): Linear(in_features=32, out_features=32, bias=False)
                (to_out): Linear(in_features=32, out_features=32, bias=True)
              )
              (norm): LayerNorm((32,), eps=1e-05, elementwise_affine=True)
            )
            (ffn): PreNorm(
              (fn): FeedForward(
                (net): Sequential(
                  (0): Conv3d(32, 128, kernel_size=(1, 1, 1), stride=(1, 1, 1), bias=False)
                  (1): GELU()
                  (2): Conv3d(128, 128, kernel_size=(3, 3, 3), stride=(1, 1, 1), padding=(1, 1, 1), groups=128, bias=False)
                  (3): GELU()
                  (4): Conv3d(128, 32, kernel_size=(1, 1, 1), stride=(1, 1, 1), bias=False)
                )
              )
              (norm): LayerNorm((32,), eps=1e-05, elementwise_affine=True)
            )
          )
          (TSAB): TSAB(
            (tsab): PreNorm(
              (fn): TimesAttention3D(
                (qkv): Linear(in_features=32, out_features=96, bias=False)
                (proj): Linear(in_features=32, out_features=32, bias=True)
                (softmax): Softmax(dim=-1)
              )
              (norm): LayerNorm((32,), eps=1e-05, elementwise_affine=True)
            )
            (ffn): PreNorm(
              (fn): FeedForward(
                (net): Sequential(
                  (0): Conv3d(32, 128, kernel_size=(1, 1, 1), stride=(1, 1, 1), bias=False)
                  (1): GELU()
                  (2): Conv3d(128, 128, kernel_size=(3, 3, 3), stride=(1, 1, 1), padding=(1, 1, 1), groups=128, bias=False)
                  (3): GELU()
                  (4): Conv3d(128, 32, kernel_size=(1, 1, 1), stride=(1, 1, 1), bias=False)
                )
              )
              (norm): LayerNorm((32,), eps=1e-05, elementwise_affine=True)
            )
          )
        )
        (upsample2): ConvTranspose3d(64, 32, kernel_size=(1, 2, 2), stride=(1, 2, 2))
        (fusion2): Conv3d(64, 32, kernel_size=(1, 1, 1), stride=(1, 1, 1), bias=False)
        (up2): STSAB(
          (FAB): FAB(
            (pos_emb): Conv3d(32, 32, kernel_size=(5, 5, 5), stride=(1, 1, 1), padding=(2, 2, 2), groups=32, bias=False)
            (fa): PreNorm(
              (fn): FA(
                (cal_atten): Attention(
                  (pc_proj_q): Linear(in_features=16, out_features=1, bias=False)
                  (pc_proj_k): Linear(in_features=16, out_features=1, bias=False)
                  (mlp1): Sequential(
                    (0): Linear(in_features=64, out_features=1, bias=False)
                  )
                  (mlp2): Sequential(
                    (0): Linear(in_features=64, out_features=64, bias=False)
                    (1): LeakyReLU(negative_slope=0.1, inplace=True)
                    (2): Linear(in_features=64, out_features=1, bias=False)
                  )
                )
                (to_v): Linear(in_features=32, out_features=32, bias=False)
                (to_qk): Linear(in_features=32, out_features=32, bias=False)
                (to_out): Linear(in_features=32, out_features=32, bias=True)
              )
              (norm): LayerNorm((32,), eps=1e-05, elementwise_affine=True)
            )
            (ffn): PreNorm(
              (fn): FeedForward(
                (net): Sequential(
                  (0): Conv3d(32, 128, kernel_size=(1, 1, 1), stride=(1, 1, 1), bias=False)
                  (1): GELU()
                  (2): Conv3d(128, 128, kernel_size=(3, 3, 3), stride=(1, 1, 1), padding=(1, 1, 1), groups=128, bias=False)
                  (3): GELU()
                  (4): Conv3d(128, 32, kernel_size=(1, 1, 1), stride=(1, 1, 1), bias=False)
                )
              )
              (norm): LayerNorm((32,), eps=1e-05, elementwise_affine=True)
            )
          )
          (TSAB): TSAB(
            (tsab): PreNorm(
              (fn): TimesAttention3D(
                (qkv): Linear(in_features=32, out_features=96, bias=False)
                (proj): Linear(in_features=32, out_features=32, bias=True)
                (softmax): Softmax(dim=-1)
              )
              (norm): LayerNorm((32,), eps=1e-05, elementwise_affine=True)
            )
            (ffn): PreNorm(
              (fn): FeedForward(
                (net): Sequential(
                  (0): Conv3d(32, 128, kernel_size=(1, 1, 1), stride=(1, 1, 1), bias=False)
                  (1): GELU()
                  (2): Conv3d(128, 128, kernel_size=(3, 3, 3), stride=(1, 1, 1), padding=(1, 1, 1), groups=128, bias=False)
                  (3): GELU()
                  (4): Conv3d(128, 32, kernel_size=(1, 1, 1), stride=(1, 1, 1), bias=False)
                )
              )
              (norm): LayerNorm((32,), eps=1e-05, elementwise_affine=True)
            )
          )
        )
        (upsample1): ConvTranspose3d(32, 16, kernel_size=(1, 2, 2), stride=(1, 2, 2))
        (fusion1): Conv3d(32, 16, kernel_size=(1, 1, 1), stride=(1, 1, 1), bias=False)
        (up1): STSAB(
          (FAB): FAB(
            (pos_emb): Conv3d(16, 16, kernel_size=(5, 5, 5), stride=(1, 1, 1), padding=(2, 2, 2), groups=16, bias=False)
            (fa): PreNorm(
              (fn): FA(
                (cal_atten): Attention(
                  (pc_proj_q): Linear(in_features=16, out_features=1, bias=False)
                  (pc_proj_k): Linear(in_features=16, out_features=1, bias=False)
                  (mlp1): Sequential(
                    (0): Linear(in_features=64, out_features=1, bias=False)
                  )
                  (mlp2): Sequential(
                    (0): Linear(in_features=64, out_features=64, bias=False)
                    (1): LeakyReLU(negative_slope=0.1, inplace=True)
                    (2): Linear(in_features=64, out_features=1, bias=False)
                  )
                )
                (to_v): Linear(in_features=16, out_features=16, bias=False)
                (to_qk): Linear(in_features=16, out_features=32, bias=False)
                (to_out): Linear(in_features=16, out_features=16, bias=True)
              )
              (norm): LayerNorm((16,), eps=1e-05, elementwise_affine=True)
            )
            (ffn): PreNorm(
              (fn): FeedForward(
                (net): Sequential(
                  (0): Conv3d(16, 64, kernel_size=(1, 1, 1), stride=(1, 1, 1), bias=False)
                  (1): GELU()
                  (2): Conv3d(64, 64, kernel_size=(3, 3, 3), stride=(1, 1, 1), padding=(1, 1, 1), groups=64, bias=False)
                  (3): GELU()
                  (4): Conv3d(64, 16, kernel_size=(1, 1, 1), stride=(1, 1, 1), bias=False)
                )
              )
              (norm): LayerNorm((16,), eps=1e-05, elementwise_affine=True)
            )
          )
          (TSAB): TSAB(
            (tsab): PreNorm(
              (fn): TimesAttention3D(
                (qkv): Linear(in_features=16, out_features=48, bias=False)
                (proj): Linear(in_features=16, out_features=16, bias=True)
                (softmax): Softmax(dim=-1)
              )
              (norm): LayerNorm((16,), eps=1e-05, elementwise_affine=True)
            )
            (ffn): PreNorm(
              (fn): FeedForward(
                (net): Sequential(
                  (0): Conv3d(16, 64, kernel_size=(1, 1, 1), stride=(1, 1, 1), bias=False)
                  (1): GELU()
                  (2): Conv3d(64, 64, kernel_size=(3, 3, 3), stride=(1, 1, 1), padding=(1, 1, 1), groups=64, bias=False)
                  (3): GELU()
                  (4): Conv3d(64, 16, kernel_size=(1, 1, 1), stride=(1, 1, 1), bias=False)
                )
              )
              (norm): LayerNorm((16,), eps=1e-05, elementwise_affine=True)
            )
          )
        )
        (conv_out): Conv3d(16, 16, kernel_size=(3, 3, 3), stride=(1, 1, 1), padding=(1, 1, 1), bias=False)
      )
    )
  )
  (net_stage_tail): ModuleList(
    (0): STT(
      (conv_in): Conv3d(16, 16, kernel_size=(3, 3, 3), stride=(1, 1, 1), padding=(1, 1, 1), bias=False)
      (down1): STSAB(
        (FAB): FAB(
          (pos_emb): Conv3d(16, 16, kernel_size=(5, 5, 5), stride=(1, 1, 1), padding=(2, 2, 2), groups=16, bias=False)
          (fa): PreNorm(
            (fn): FA(
              (cal_atten): Attention(
                (pc_proj_q): Linear(in_features=16, out_features=1, bias=False)
                (pc_proj_k): Linear(in_features=16, out_features=1, bias=False)
                (mlp1): Sequential(
                  (0): Linear(in_features=64, out_features=1, bias=False)
                )
                (mlp2): Sequential(
                  (0): Linear(in_features=64, out_features=64, bias=False)
                  (1): LeakyReLU(negative_slope=0.1, inplace=True)
                  (2): Linear(in_features=64, out_features=1, bias=False)
                )
              )
              (to_v): Linear(in_features=16, out_features=16, bias=False)
              (to_qk): Linear(in_features=16, out_features=32, bias=False)
              (to_out): Linear(in_features=16, out_features=16, bias=True)
            )
            (norm): LayerNorm((16,), eps=1e-05, elementwise_affine=True)
          )
          (ffn): PreNorm(
            (fn): FeedForward(
              (net): Sequential(
                (0): Conv3d(16, 64, kernel_size=(1, 1, 1), stride=(1, 1, 1), bias=False)
                (1): GELU()
                (2): Conv3d(64, 64, kernel_size=(3, 3, 3), stride=(1, 1, 1), padding=(1, 1, 1), groups=64, bias=False)
                (3): GELU()
                (4): Conv3d(64, 16, kernel_size=(1, 1, 1), stride=(1, 1, 1), bias=False)
              )
            )
            (norm): LayerNorm((16,), eps=1e-05, elementwise_affine=True)
          )
        )
        (TSAB): TSAB(
          (tsab): PreNorm(
            (fn): TimesAttention3D(
              (qkv): Linear(in_features=16, out_features=48, bias=False)
              (proj): Linear(in_features=16, out_features=16, bias=True)
              (softmax): Softmax(dim=-1)
            )
            (norm): LayerNorm((16,), eps=1e-05, elementwise_affine=True)
          )
          (ffn): PreNorm(
            (fn): FeedForward(
              (net): Sequential(
                (0): Conv3d(16, 64, kernel_size=(1, 1, 1), stride=(1, 1, 1), bias=False)
                (1): GELU()
                (2): Conv3d(64, 64, kernel_size=(3, 3, 3), stride=(1, 1, 1), padding=(1, 1, 1), groups=64, bias=False)
                (3): GELU()
                (4): Conv3d(64, 16, kernel_size=(1, 1, 1), stride=(1, 1, 1), bias=False)
              )
            )
            (norm): LayerNorm((16,), eps=1e-05, elementwise_affine=True)
          )
        )
      )
      (downsample1): Conv3d(16, 32, kernel_size=(3, 4, 4), stride=(1, 2, 2), padding=(1, 1, 1), bias=False)
      (down2): STSAB(
        (FAB): FAB(
          (pos_emb): Conv3d(32, 32, kernel_size=(5, 5, 5), stride=(1, 1, 1), padding=(2, 2, 2), groups=32, bias=False)
          (fa): PreNorm(
            (fn): FA(
              (cal_atten): Attention(
                (pc_proj_q): Linear(in_features=16, out_features=1, bias=False)
                (pc_proj_k): Linear(in_features=16, out_features=1, bias=False)
                (mlp1): Sequential(
                  (0): Linear(in_features=64, out_features=1, bias=False)
                )
                (mlp2): Sequential(
                  (0): Linear(in_features=64, out_features=64, bias=False)
                  (1): LeakyReLU(negative_slope=0.1, inplace=True)
                  (2): Linear(in_features=64, out_features=1, bias=False)
                )
              )
              (to_v): Linear(in_features=32, out_features=32, bias=False)
              (to_qk): Linear(in_features=32, out_features=32, bias=False)
              (to_out): Linear(in_features=32, out_features=32, bias=True)
            )
            (norm): LayerNorm((32,), eps=1e-05, elementwise_affine=True)
          )
          (ffn): PreNorm(
            (fn): FeedForward(
              (net): Sequential(
                (0): Conv3d(32, 128, kernel_size=(1, 1, 1), stride=(1, 1, 1), bias=False)
                (1): GELU()
                (2): Conv3d(128, 128, kernel_size=(3, 3, 3), stride=(1, 1, 1), padding=(1, 1, 1), groups=128, bias=False)
                (3): GELU()
                (4): Conv3d(128, 32, kernel_size=(1, 1, 1), stride=(1, 1, 1), bias=False)
              )
            )
            (norm): LayerNorm((32,), eps=1e-05, elementwise_affine=True)
          )
        )
        (TSAB): TSAB(
          (tsab): PreNorm(
            (fn): TimesAttention3D(
              (qkv): Linear(in_features=32, out_features=96, bias=False)
              (proj): Linear(in_features=32, out_features=32, bias=True)
              (softmax): Softmax(dim=-1)
            )
            (norm): LayerNorm((32,), eps=1e-05, elementwise_affine=True)
          )
          (ffn): PreNorm(
            (fn): FeedForward(
              (net): Sequential(
                (0): Conv3d(32, 128, kernel_size=(1, 1, 1), stride=(1, 1, 1), bias=False)
                (1): GELU()
                (2): Conv3d(128, 128, kernel_size=(3, 3, 3), stride=(1, 1, 1), padding=(1, 1, 1), groups=128, bias=False)
                (3): GELU()
                (4): Conv3d(128, 32, kernel_size=(1, 1, 1), stride=(1, 1, 1), bias=False)
              )
            )
            (norm): LayerNorm((32,), eps=1e-05, elementwise_affine=True)
          )
        )
      )
      (downsample2): Conv3d(32, 64, kernel_size=(3, 4, 4), stride=(1, 2, 2), padding=(1, 1, 1), bias=False)
      (bottleneck_local): STSAB(
        (FAB): FAB(
          (pos_emb): Conv3d(32, 32, kernel_size=(5, 5, 5), stride=(1, 1, 1), padding=(2, 2, 2), groups=32, bias=False)
          (fa): PreNorm(
            (fn): FA(
              (cal_atten): Attention(
                (pc_proj_q): Linear(in_features=16, out_features=1, bias=False)
                (pc_proj_k): Linear(in_features=16, out_features=1, bias=False)
                (mlp1): Sequential(
                  (0): Linear(in_features=64, out_features=1, bias=False)
                )
                (mlp2): Sequential(
                  (0): Linear(in_features=64, out_features=64, bias=False)
                  (1): LeakyReLU(negative_slope=0.1, inplace=True)
                  (2): Linear(in_features=64, out_features=1, bias=False)
                )
              )
              (to_v): Linear(in_features=32, out_features=32, bias=False)
              (to_qk): Linear(in_features=32, out_features=32, bias=False)
              (to_out): Linear(in_features=32, out_features=32, bias=True)
            )
            (norm): LayerNorm((32,), eps=1e-05, elementwise_affine=True)
          )
          (ffn): PreNorm(
            (fn): FeedForward(
              (net): Sequential(
                (0): Conv3d(32, 128, kernel_size=(1, 1, 1), stride=(1, 1, 1), bias=False)
                (1): GELU()
                (2): Conv3d(128, 128, kernel_size=(3, 3, 3), stride=(1, 1, 1), padding=(1, 1, 1), groups=128, bias=False)
                (3): GELU()
                (4): Conv3d(128, 32, kernel_size=(1, 1, 1), stride=(1, 1, 1), bias=False)
              )
            )
            (norm): LayerNorm((32,), eps=1e-05, elementwise_affine=True)
          )
        )
        (TSAB): TSAB(
          (tsab): PreNorm(
            (fn): TimesAttention3D(
              (qkv): Linear(in_features=32, out_features=96, bias=False)
              (proj): Linear(in_features=32, out_features=32, bias=True)
              (softmax): Softmax(dim=-1)
            )
            (norm): LayerNorm((32,), eps=1e-05, elementwise_affine=True)
          )
          (ffn): PreNorm(
            (fn): FeedForward(
              (net): Sequential(
                (0): Conv3d(32, 128, kernel_size=(1, 1, 1), stride=(1, 1, 1), bias=False)
                (1): GELU()
                (2): Conv3d(128, 128, kernel_size=(3, 3, 3), stride=(1, 1, 1), padding=(1, 1, 1), groups=128, bias=False)
                (3): GELU()
                (4): Conv3d(128, 32, kernel_size=(1, 1, 1), stride=(1, 1, 1), bias=False)
              )
            )
            (norm): LayerNorm((32,), eps=1e-05, elementwise_affine=True)
          )
        )
      )
      (bottleneck_swin): STSAB(
        (FAB): FAB(
          (pos_emb): Conv3d(32, 32, kernel_size=(5, 5, 5), stride=(1, 1, 1), padding=(2, 2, 2), groups=32, bias=False)
          (fa): PreNorm(
            (fn): FA(
              (cal_atten): Attention(
                (pc_proj_q): Linear(in_features=16, out_features=1, bias=False)
                (pc_proj_k): Linear(in_features=16, out_features=1, bias=False)
                (mlp1): Sequential(
                  (0): Linear(in_features=64, out_features=1, bias=False)
                )
                (mlp2): Sequential(
                  (0): Linear(in_features=64, out_features=64, bias=False)
                  (1): LeakyReLU(negative_slope=0.1, inplace=True)
                  (2): Linear(in_features=64, out_features=1, bias=False)
                )
              )
              (to_v): Linear(in_features=32, out_features=32, bias=False)
              (to_qk): Linear(in_features=32, out_features=32, bias=False)
              (to_out): Linear(in_features=32, out_features=32, bias=True)
            )
            (norm): LayerNorm((32,), eps=1e-05, elementwise_affine=True)
          )
          (ffn): PreNorm(
            (fn): FeedForward(
              (net): Sequential(
                (0): Conv3d(32, 128, kernel_size=(1, 1, 1), stride=(1, 1, 1), bias=False)
                (1): GELU()
                (2): Conv3d(128, 128, kernel_size=(3, 3, 3), stride=(1, 1, 1), padding=(1, 1, 1), groups=128, bias=False)
                (3): GELU()
                (4): Conv3d(128, 32, kernel_size=(1, 1, 1), stride=(1, 1, 1), bias=False)
              )
            )
            (norm): LayerNorm((32,), eps=1e-05, elementwise_affine=True)
          )
        )
        (TSAB): TSAB(
          (tsab): PreNorm(
            (fn): TimesAttention3D(
              (qkv): Linear(in_features=32, out_features=96, bias=False)
              (proj): Linear(in_features=32, out_features=32, bias=True)
              (softmax): Softmax(dim=-1)
            )
            (norm): LayerNorm((32,), eps=1e-05, elementwise_affine=True)
          )
          (ffn): PreNorm(
            (fn): FeedForward(
              (net): Sequential(
                (0): Conv3d(32, 128, kernel_size=(1, 1, 1), stride=(1, 1, 1), bias=False)
                (1): GELU()
                (2): Conv3d(128, 128, kernel_size=(3, 3, 3), stride=(1, 1, 1), padding=(1, 1, 1), groups=128, bias=False)
                (3): GELU()
                (4): Conv3d(128, 32, kernel_size=(1, 1, 1), stride=(1, 1, 1), bias=False)
              )
            )
            (norm): LayerNorm((32,), eps=1e-05, elementwise_affine=True)
          )
        )
      )
      (upsample2): ConvTranspose3d(64, 32, kernel_size=(1, 2, 2), stride=(1, 2, 2))
      (fusion2): Conv3d(64, 32, kernel_size=(1, 1, 1), stride=(1, 1, 1), bias=False)
      (up2): STSAB(
        (FAB): FAB(
          (pos_emb): Conv3d(32, 32, kernel_size=(5, 5, 5), stride=(1, 1, 1), padding=(2, 2, 2), groups=32, bias=False)
          (fa): PreNorm(
            (fn): FA(
              (cal_atten): Attention(
                (pc_proj_q): Linear(in_features=16, out_features=1, bias=False)
                (pc_proj_k): Linear(in_features=16, out_features=1, bias=False)
                (mlp1): Sequential(
                  (0): Linear(in_features=64, out_features=1, bias=False)
                )
                (mlp2): Sequential(
                  (0): Linear(in_features=64, out_features=64, bias=False)
                  (1): LeakyReLU(negative_slope=0.1, inplace=True)
                  (2): Linear(in_features=64, out_features=1, bias=False)
                )
              )
              (to_v): Linear(in_features=32, out_features=32, bias=False)
              (to_qk): Linear(in_features=32, out_features=32, bias=False)
              (to_out): Linear(in_features=32, out_features=32, bias=True)
            )
            (norm): LayerNorm((32,), eps=1e-05, elementwise_affine=True)
          )
          (ffn): PreNorm(
            (fn): FeedForward(
              (net): Sequential(
                (0): Conv3d(32, 128, kernel_size=(1, 1, 1), stride=(1, 1, 1), bias=False)
                (1): GELU()
                (2): Conv3d(128, 128, kernel_size=(3, 3, 3), stride=(1, 1, 1), padding=(1, 1, 1), groups=128, bias=False)
                (3): GELU()
                (4): Conv3d(128, 32, kernel_size=(1, 1, 1), stride=(1, 1, 1), bias=False)
              )
            )
            (norm): LayerNorm((32,), eps=1e-05, elementwise_affine=True)
          )
        )
        (TSAB): TSAB(
          (tsab): PreNorm(
            (fn): TimesAttention3D(
              (qkv): Linear(in_features=32, out_features=96, bias=False)
              (proj): Linear(in_features=32, out_features=32, bias=True)
              (softmax): Softmax(dim=-1)
            )
            (norm): LayerNorm((32,), eps=1e-05, elementwise_affine=True)
          )
          (ffn): PreNorm(
            (fn): FeedForward(
              (net): Sequential(
                (0): Conv3d(32, 128, kernel_size=(1, 1, 1), stride=(1, 1, 1), bias=False)
                (1): GELU()
                (2): Conv3d(128, 128, kernel_size=(3, 3, 3), stride=(1, 1, 1), padding=(1, 1, 1), groups=128, bias=False)
                (3): GELU()
                (4): Conv3d(128, 32, kernel_size=(1, 1, 1), stride=(1, 1, 1), bias=False)
              )
            )
            (norm): LayerNorm((32,), eps=1e-05, elementwise_affine=True)
          )
        )
      )
      (upsample1): ConvTranspose3d(32, 16, kernel_size=(1, 2, 2), stride=(1, 2, 2))
      (fusion1): Conv3d(32, 16, kernel_size=(1, 1, 1), stride=(1, 1, 1), bias=False)
      (up1): STSAB(
        (FAB): FAB(
          (pos_emb): Conv3d(16, 16, kernel_size=(5, 5, 5), stride=(1, 1, 1), padding=(2, 2, 2), groups=16, bias=False)
          (fa): PreNorm(
            (fn): FA(
              (cal_atten): Attention(
                (pc_proj_q): Linear(in_features=16, out_features=1, bias=False)
                (pc_proj_k): Linear(in_features=16, out_features=1, bias=False)
                (mlp1): Sequential(
                  (0): Linear(in_features=64, out_features=1, bias=False)
                )
                (mlp2): Sequential(
                  (0): Linear(in_features=64, out_features=64, bias=False)
                  (1): LeakyReLU(negative_slope=0.1, inplace=True)
                  (2): Linear(in_features=64, out_features=1, bias=False)
                )
              )
              (to_v): Linear(in_features=16, out_features=16, bias=False)
              (to_qk): Linear(in_features=16, out_features=32, bias=False)
              (to_out): Linear(in_features=16, out_features=16, bias=True)
            )
            (norm): LayerNorm((16,), eps=1e-05, elementwise_affine=True)
          )
          (ffn): PreNorm(
            (fn): FeedForward(
              (net): Sequential(
                (0): Conv3d(16, 64, kernel_size=(1, 1, 1), stride=(1, 1, 1), bias=False)
                (1): GELU()
                (2): Conv3d(64, 64, kernel_size=(3, 3, 3), stride=(1, 1, 1), padding=(1, 1, 1), groups=64, bias=False)
                (3): GELU()
                (4): Conv3d(64, 16, kernel_size=(1, 1, 1), stride=(1, 1, 1), bias=False)
              )
            )
            (norm): LayerNorm((16,), eps=1e-05, elementwise_affine=True)
          )
        )
        (TSAB): TSAB(
          (tsab): PreNorm(
            (fn): TimesAttention3D(
              (qkv): Linear(in_features=16, out_features=48, bias=False)
              (proj): Linear(in_features=16, out_features=16, bias=True)
              (softmax): Softmax(dim=-1)
            )
            (norm): LayerNorm((16,), eps=1e-05, elementwise_affine=True)
          )
          (ffn): PreNorm(
            (fn): FeedForward(
              (net): Sequential(
                (0): Conv3d(16, 64, kernel_size=(1, 1, 1), stride=(1, 1, 1), bias=False)
                (1): GELU()
                (2): Conv3d(64, 64, kernel_size=(3, 3, 3), stride=(1, 1, 1), padding=(1, 1, 1), groups=64, bias=False)
                (3): GELU()
                (4): Conv3d(64, 16, kernel_size=(1, 1, 1), stride=(1, 1, 1), bias=False)
              )
            )
            (norm): LayerNorm((16,), eps=1e-05, elementwise_affine=True)
          )
        )
      )
      (conv_out): Conv3d(16, 16, kernel_size=(3, 3, 3), stride=(1, 1, 1), padding=(1, 1, 1), bias=False)
    )
  )
  (fem): FEM(
    (fem): Sequential(
      (0): Conv3d(1, 4, kernel_size=(3, 7, 7), stride=(1, 1, 1), padding=(1, 3, 3))
      (1): LeakyReLU(negative_slope=0.01, inplace=True)
      (2): Conv3d(4, 8, kernel_size=(3, 3, 3), stride=(1, 1, 1), padding=(1, 1, 1))
      (3): LeakyReLU(negative_slope=0.01, inplace=True)
      (4): Conv3d(8, 16, kernel_size=(3, 3, 3), stride=(1, 1, 1), padding=(1, 1, 1))
      (5): LeakyReLU(negative_slope=0.01, inplace=True)
    )
  )
  (vrm): VRM(
    (vrm): Sequential(
      (0): Conv3d(16, 16, kernel_size=(3, 3, 3), stride=(1, 1, 1), padding=(1, 1, 1))
      (1): LeakyReLU(negative_slope=0.01, inplace=True)
      (2): Conv3d(16, 16, kernel_size=(1, 1, 1), stride=(1, 1, 1))
      (3): LeakyReLU(negative_slope=0.01, inplace=True)
      (4): Conv3d(16, 1, kernel_size=(3, 3, 3), stride=(1, 1, 1), padding=(1, 1, 1))
    )
  )
)
--------------------------------------------------------------------------------

2025-03-09 19:05:10,191 - Train_video.py [line: 212] - No pre_train model
2025-03-09 19:05:11,775 - Train_video.py [line: 276] - epoch: [0][    0/26030], lr: 0.000400, loss: 1.51698.
2025-03-09 19:08:05,053 - Train_video.py [line: 276] - epoch: [0][  250/26030], lr: 0.000400, loss: 0.36725.
…
